model_parameters_RGB.pth (torch, 15407 bytes, 16 tensors)

light._t_vec f8 [1, 1, 3]
0.326 -0.063 -0.033
00000000: 77be 9f1a 2fdd d43f 54e3 a59b c420 b0bf
00000010: 4c37 8941 60e5 a0bf

light.light_color_log f4 [3]
0.0 0.0 0.0
00000000: 0000 0000 0000 0000 0000 0000

light.trunk.0.weight f4 [20, 5]
-0.38269967 -0.36767817 0.034518443 0.039435733 1.2623274 -1.2848301 -0.44643673 -0.95323753
-0.3776182 -0.89361477 0.16592078 -0.21577881 -0.1874917 -0.6157004 1.3111473 -0.50368184
-0.4794635 -0.79749304 -0.31875175 -0.74543655 0.38284785 0.28301522 0.15991005 0.3084165
1.4307598 -0.15120606 0.44343105 -0.1453604 -0.033665884 1.3361999 0.14748274 0.08048396
0.18418178 -0.0934759 -1.3095883 -0.60368305 -0.20398223 -0.26334983 0.043685116 -1.3981048
-0.10551645 -1.0367169 -0.48284817 -1.4983261 0.72176164 0.36110055 -0.27460828 0.521666
0.39261872 1.6656119 -0.072545364 -0.4083806 -0.32993975 -0.6093273 0.71679485 -0.7420126
-0.5677094 0.13664258 -0.5355554 -1.5698228 0.44866252 -0.23544487 -0.09900454 -1.2883817
-1.332861 0.3455978 -0.44795638 -0.19214688 0.24195455 -1.515118 -0.07374774 -0.18824951
-0.22612225 -0.8940792 -1.1275884 0.52975327 -0.095363036 0.27548912 -1.6265916 -1.1885495
0.19103883 0.17256981 -0.20737301 0.07676089 -1.4794717 -0.47426978 0.17614213 -0.23100606
0.072723314 1.1837083 -1.024496 -0.07748778 -0.5723863 0.90323865 0.76702243 0.31765243
-0.74845904 -0.17541572 -1.4335601 -0.33334473
00000000: 36f1 c3be 5040 bcbe 3663 0d3d 5d87 213d
00000010: f293 a13f 5075 a4bf 5b93 e4be 6007 74bf
00000020: 2c57 c1be f0c3 64bf 23e7 293e 1ff5 5cbe
00000030: d3fd 3fbe 8b9e 1dbf add3 a73f 4bf1 00bf
00000040: 3d7c f5be 8128 4cbf 6e33 a3be eed4 3ebf
00000050: a204 c43e 5fe7 903e 76bf 233e c4e8 9d3e
00000060: 2323 b73f c3d5 1abe 6509 e33e 5bd9 14be
00000070: 3de5 09bd 9908 ab3f b705 173e c6d4 a43d
00000080: 269a 3c3e 4b70 bfbd 97a0 a7bf f98a 1abf
00000090: b8e0 50be cad5 86be 2aef 323d 19f5 b2bf
000000a0: 0219 d8bd 24b3 84bf e037 f7be 26c9 bfbf
000000b0: 5fc5 383f 2ce2 b83e 7599 8cbe e78b 053f
000000c0: 5205 c93e c532 d53f aa92 94bd 4317 d1be
000000d0: dded a8be e0fc 1bbf de7f 373f 8af4 3dbf
000000e0: 6755 11bf 08ec 0b3e 291a 09bf f4ef c8bf
000000f0: 18b7 e53e 7618 71be e4c2 cabd b1e9 a4bf
00000100: 309b aabf 32f2 b03e 8a5a e5be 27c2 44be
00000110: efc2 773e 63ef c1bf 0e09 97bd 7bc4 40be
00000120: 978c 67be 60e2 64bf d154 90bf e99d 073f
00000130: b24d c3bd e90c 8d3e 2734 d0bf 6422 98bf
00000140: af9f 433e 24b6 303e 9759 54be d034 9d3d
00000150: 545f bdbf 7dd3 f2be 9a5e 343e da8c 6cbe
00000160: f6ef 943d c183 973f af22 83bf eab1 9ebd
00000170: e987 12bf a63a 673f 955b 443f 57a3 a23e
00000180: 039b 3fbf 2ea0 33be e67e b7bf 29ac aabe

light.trunk.0.bias f4 [20]
-0.1287121 -0.8088949 -0.052153483 -0.6908954 0.09113153 0.064578824 -0.17615841 -0.6399472
-0.6821711 0.21059509 -0.6555285 -0.34860817 0.05854426 -0.079326324 -0.5687958 0.2992478
-0.07345572 -0.122153886 -0.4606602 -0.36042002
00000000: 1bcd 03be bc13 4fbf e49e 55bd 85de 30bf
00000010: 2ba3 ba3d e741 843d df62 34be 94d3 23bf
00000020: c4a2 2ebf 3da6 573e b7d0 27bf c57c b2be
00000030: 1bcc 6f3d d775 a2bd 9a9c 11bf 0237 993e
00000040: f46f 96bd d12b fabd a7db ebbe f988 b8be

light.trunk.2.weight f4 [20, 20]
-0.6657982 0.0008513977 -0.12550227 -0.4577343 -0.75052184 -0.23091178 -0.052182566 0.08609159
0.31484082 -1.0051603 -0.4006959 0.5061426 0.78594023 0.29971293 0.29544666 0.6806115
-0.09035458 -0.13903642 -0.6896378 0.47471163 0.19269775 -0.51040614 -0.1614202 -0.5525269
0.013380392 -0.36377478 -0.40825668 -0.35262883 0.1358997 -0.3020174 -0.31639576 -0.5611455
-0.24289025 -0.6608171 -0.09836106 -0.6392911 -0.5677565 -0.16609445 0.16191386 -0.29508212
0.6439702 -0.013895992 0.10006823 -0.28390023 0.58744365 0.2874059 -0.17839293 -0.44136742
-0.036700327 1.0381657 0.46482036 -0.19670042 -0.6811882 -0.13141707 0.10547154 -1.011717
-0.024411457 0.15567343 0.42756084 -0.38162905 -0.29946935 -0.12915549 -0.6177894 -0.70651
-0.12572269 -0.09743247 -0.3168587 -0.64016277 -0.012004228 -0.36519626 -0.14031903 -0.004972325
-0.5271852 -0.102046214 0.1629675 -0.1801879 -0.5979172 -0.8193004 -0.7591955 -0.21592662
-0.62214273 0.1919919 -0.29536438 0.071878456 -0.57181954 -0.14348978 -0.24282481 -0.5878391
0.07272627 -0.6818746 -0.3358877 -0.7010648 -0.36739597 -0.009452806 -0.4258844 -0.3417796
-0.5861045 -0.18971957 -0.24161954 -0.4620817 0.4513396 -0.12579517 0.47154364 -0.23255034
0.50685954 0.31797212 0.023896828 0.08815544 -0.015808627 0.4652554 -0.14692807 -0.47168973
-0.55687135 -0.67853373 -0.40080598 -0.35861823 -0.21170944 0.05932331 0.31326258 -0.03916991
-0.37223586 -0.40136072 0.18491018 -0.17894803 0.14717285 -0.51288486 -0.54542714 -0.49818093
0.08352596 -0.4652786 -0.47837886 -0.33005464 -0.2786375 -0.21916677 -0.50747454 -0.48437867
-0.72225314 -0.03445125 -0.27002475 -0.31166285 -0.26131478 -0.078819506 -0.5396157 -0.28727457
-0.30099908 -0.039474614 0.23314808 -0.11591497 0.12264313 0.17741288 -0.5063219 -0.20486315
-0.6934216 -0.35715002 -0.13758157 -0.3702172 -0.20112213 -0.4600398 0.1684669 -0.5779224
-0.080771506 0.27257937 0.107201 -0.48398435 0.24166663 0.5856681 -0.37024608 -0.41602725
0.45750156 -0.011421196 -0.16211006 0.028198631 0.042151902 -0.30249852 -0.3173816 -0.0120288655
-0.52654517 0.25309354 -0.28987363 0.10916612 -0.7841406 0.15431659 -0.5280863 0.15581906
-0.5678787 -0.68392736 0.52590656 0.3528866 -0.105215244 -1.0757202 0.055993978 0.25090107
0.2170434 0.32976696 0.4828681 0.41529378 0.46511826 -0.7953277 -0.5487436 -0.16103378
0.05950273 -0.23537837 0.29558593 -0.44287148 0.44794878 0.35490066 -0.38516212 0.05701706
0.07433944 0.48310396 0.037253182 -0.34363997 -0.36905798 -0.37162176 -0.004823392 -0.22344658
-0.2745319 0.12833615 0.03326431 -0.013309768 -0.5717568 -0.437453 -0.3259198 -0.43656802
-0.35249516 -0.31740102 -0.28588158 -0.49986374 -0.25995192 -0.1963954 -0.13982202 -0.761943
-0.36659074 -0.47432378 -0.6932319 -0.19015464 -0.35757014 -0.16464376 -0.8538525 -0.31271017
-0.58391136 0.03383749 -0.18480566 0.056539103 -0.45716947 0.02407254 0.14271756 -0.35500425
0.019206991 -0.15437965 -0.30240119 -0.26907307 -0.3630122 0.1185397 -0.1381008 -0.02318302
00000000: c071 2abf 5530 5f3a ab83 00be 265c eabe
00000010: 3322 40bf 2374 6cbe 63bd 55bd ca50 b03d
00000020: d132 a13e 18a9 80bf 0328 cdbe 9092 013f
00000030: 6133 493f f973 993e c944 973e 8e3c 2e3f
00000040: d20b b9bd 905f 0ebe 1a8c 30bf 670d f33e
00000050: 8f52 453e faa9 02bf 564b 25be 6772 0dbf
00000060: 6f39 5b3c b040 babe 0507 d1be c48b b4be
00000070: 4a29 0b3e 06a2 9abe a0fe a1be 3ba7 0fbf
00000080: 39b8 78be 4f2b 29bf 8671 c9bd 95a8 23bf
00000090: 7d58 11bf aa14 2abe bfcc 253e 0115 97be
000000a0: 3bdb 243f 04ac 63bc 92f0 cc3d 5f5b 91be
000000b0: b562 163f de26 933e a3ac 36be e9fa e1be
000000c0: 1553 16bd 9de2 843f effc ed3e d66b 49be
000000d0: 5a62 2ebf 3292 06be 7601 d83d f17f 81bf
000000e0: 89fa c7bc db68 1f3e 41e9 da3e e264 c3be
000000f0: 0c54 99be 5641 04be 7227 1ebf d7dd 34bf
00000100: 73bd 00be ad8a c7bd 4e3b a2be b5e1 23bf
00000110: 62ad 44bc 01fb babe cbaf 0fbe e3ee a2bb
00000120: 9cf5 06bf 9bfd d0bd f4e0 263e 2d83 38be
00000130: 1a11 19bf acbd 51bf a35a 42bf de1b 5dbe
00000140: bf44 1fbf 8699 443e 003a 97be 0335 933d
00000150: c462 12bf fcee 12be 11a7 78be a07c 16bf
00000160: 83f1 943d 558f 2ebf 79f9 abbe fc78 33bf
00000170: 531b bcbe f1df 1abc 850d dabe bcfd aebe
00000180: f20a 16bf d945 42be 1d6b 77be f995 ecbe
00000190: fc15 e73e 73d0 00be 2b6e f13e ad21 6ebe
000001a0: 8cc1 013f 3ecd a23e 48c3 c33c d78a b43d
000001b0: 1881 81bc f535 ee3e 5074 16be 5181 f1be
000001c0: 1f8f 0ebf 63b4 2dbf 7136 cdbe cf9c b7be
000001d0: 5cca 58be 00fd 723d f463 a03e a170 20bd
000001e0: b395 bebe 277f cdbe 1859 3d3e 273e 37be
000001f0: 7bb4 163e 6c4c 03bf 1da1 0bbf 9211 ffbe
00000200: a90f ab3d ff38 eebe 13ee f4be ecfc a8be
00000210: 93a9 8ebe 416d 60be dae9 01bf 7b00 f8be
00000220: 95e5 38bf c11c 0dbd af40 8abe 4692 9fbe
00000230: 0dcb 85be 1f6c a1bd 4124 0abf a715 93be
00000240: 8d1c 9abe 22b0 21bd 5fbe 6e3e d464 edbd
00000250: 522c fb3d b9ab 353e 509e 01bf a5c7 51be
00000260: 1484 31bf 5edc b6be 2fe2 0cbe 1c8d bdbe
00000270: f6f2 4dbe 568a ebbe 9682 2c3e b9f2 13bf
00000280: 886b a5bd 868f 8b3e 338c db3d cccc f7be
00000290: 7577 773e 58ee 153f e590 bdbe 8601 d5be
000002a0: a53d ea3e f81f 3bbc 2e00 26be d100 e73c
000002b0: 79a7 2c3d 16e1 9abe d77f a2be b814 45bc
000002c0: aacb 06bf 7a95 813e 516a 94be 7d92 df3d
000002d0: 70bd 48bf 2b05 1e3e aa30 07bf 088f 1f3e
000002e0: 8060 11bf dd15 2fbf d0a1 063f 8dad b43e
000002f0: 177b d7bd 33b1 89bf f159 653d 1b76 803e
00000300: a040 5e3e 37d7 a83e 7d3a f73e 63a1 d43e
00000310: fb23 ee3e 999a 4bbf 767a 0cbf 0ae6 24be
00000320: 22b9 733d 0707 71be 0a57 973e 0dc0 e2be
00000330: 8b59 e53e 8ab5 b53e f833 c5be b98a 693d
00000340: 473f 983d 6759 f73e cb96 183d 94f1 afbe
00000350: 2bf5 bcbe 3545 bebe 8b0d 9ebb 2ecf 64be
00000360: 728f 8cbe 8d6a 033e 2840 083d 3711 5abc
00000370: a75e 12bf d7f9 dfbe f6de a6be d885 dfbe
00000380: 3f7a b4be 6382 a2be 125f 92be 24ee ffbe
00000390: 6b18 85be e01b 49be 812d 0fbe b20e 43bf
000003a0: c8b1 bbbe 91da f2be a577 31bf e6b7 42be
000003b0: 6f13 b7be 6098 28be 1496 5abf 8c1b a0be
000003c0: 377b 15bf 2e99 0a3d b23d 3dbe 8c95 673d
000003d0: 1e12 eabe c733 c53c 8d24 123e 1ec3 b5be
000003e0: fb57 9d3c b315 1ebe 54d4 9abe f2c3 89be
000003f0: bcdc b9be f1c4 f23d 4c6a 0dbe 51ea bdbc

light.trunk.2.bias f4 [20]
-0.16109832 -0.04967763 0.09934491 -0.24273442 -0.19554101 -0.014709306 0.026738925 -0.11443828
0.059588537 -0.102691695 0.035625517 -0.37664443 -0.11193196 -0.23737136 -0.28211853 -0.14816135
-0.061444283 -0.11743104 -0.11673673 0.099217735
00000000: f5f6 24be c57a 4bbd 5875 cb3d 5f8f 78be
00000010: e73b 48be 4dff 70bc 970b db3c 9e5e eabd
00000020: 1c13 743d 0650 d2bd 10ec 113d 8ad7 c0be
00000030: 953c e5bd 7a11 73be d771 90be 9cb7 17be
00000040: 00ad 7bbd af7f f0bd ab13 efbd ab32 cb3d

light.trunk.4.weight f4 [20, 20]
-0.49374607 -1.4626366 -1.2227415 -0.4152082 -0.40787148 -1.5189244 -0.53458416 -0.37751016
-1.2533125 -0.43718278 -1.1080126 -0.74610996 -0.48151776 -0.94999194 -0.9764522 -0.072534144
-0.48178458 -0.11051459 -0.8712966 -0.6121887 -0.87830144 -0.9528492 -1.4144968 -0.8583243
-1.1685181 -1.5012816 -1.2024032 -0.6038426 -1.2165284 0.10521646 -1.4144582 -0.62653947
-0.7546608 -0.9582509 -0.8074265 -0.67009646 -0.16688411 -1.1436 -1.311373 -0.07373349
-0.39434537 0.0025788445 0.13847844 0.5064966 0.2996671 -0.015395352 0.13063195 0.13332407
-0.018971244 -0.664641 -0.08276359 0.097378954 0.42317075 0.03643798 -0.095928766 0.6377205
0.0844574 0.4404181 0.3388781 0.5368184 -0.30113757 -0.07640286 -0.38752958 0.60166293
-0.2977864 0.019505743 0.02676065 0.029663298 -0.06423757 -0.23108765 -0.13409266 0.4385246
0.5179122 0.22072053 0.053406898 0.507756 -0.33838797 0.4830389 0.37583444 0.40379208
-0.67042136 0.2970487 -0.3367454 1.2192826 1.4176517 -0.34762356 0.7858614 0.43951446
-0.116149135 -1.5048311 0.31884587 1.0806533 0.8719955 0.8261991 0.4142366 0.7844505
-0.22027865 1.1220678 1.2988741 0.2116926 0.24848573 -0.31108013 -0.98228884 -0.07714461
-0.5033364 -0.4929351 -0.06850191 -0.5537459 -0.9997009 -0.04608978 -0.31080005 -0.4559695
-0.7126755 -0.78007764 -0.53719676 -0.3269432 -0.023657946 -0.4137285 -0.7424401 -0.5774608
-0.11483863 0.03304624 -0.22892262 0.4044258 0.0863074 -0.10465994 -0.34827566 0.06402247
-0.27721697 -0.5044478 -0.48363268 -0.27116895 0.14350633 -0.2698357 -0.4985425 -0.20968196
-0.15070802 0.15017435 -0.10413752 -0.10077241 0.10565916 -1.0819875 -0.88799286 -0.20838732
-0.7847301 -0.40364328 -0.627903 0.17975755 -0.79537725 0.23965403 -1.0346646 -0.6598293
-0.29196715 -0.22071107 -0.7872225 0.42562038 0.42346606 0.07436456 -0.3242423 0.23917755
0.6456001 -0.58903384 -1.1856701 -0.50469345 -0.46807152 -0.7810311 -0.18982641 -0.3841424
-0.8698513 0.7973735 -0.72381455 -0.5069139 0.090941995 -0.6240165 -0.6660395 -0.1165379
0.36471123 0.16281246 -0.17636773 0.016748872 -0.31858107 -0.38381988 -0.027371189 -0.21670109
-0.14749062 -0.17015092 -0.0017364542 -0.4677801 -0.64009506 -0.30308014 -0.7767826 -0.027211593
-0.1503342 -0.3051827 -0.21511827 0.10083813 -0.23286858 -0.0015323889 0.08902717 0.10605389
-0.21136267 -0.18627645 -0.4263131 0.22712727 -0.3735492 -0.06778297 -0.38162526 0.007419774
-0.013892288 -0.35692418 -0.0627119 -0.46550363 0.12009985 -0.19243638 -0.19944075 0.11594574
-0.17174752 -0.1036772 0.105635665 0.019283004 0.4353104 -0.90554315 -0.7619523 -0.68918306
-0.29392746 -1.1061913 -0.29967195 -0.3455753 -0.92788917 0.6270139 -0.9558867 -1.2054381
-0.089093514 -0.24852784 -0.71606535 0.20104392 0.1558141 -0.35711607 -0.5896721 0.12182258
-0.45228818 -1.2687635 -0.78675866 -0.34308526 -0.6793616 -0.9126898 -0.7923557 -0.6468914
-0.669883 0.38030395 -1.028904 -0.9639887 -0.7910088 -0.5064255 -0.6633051 -0.43307158
00000000: 49cc fcbe ad37 bbbf cb82 9cbf 2b96 d4be
00000010: 88d4 d0be 1d6c c2bf 82da 08bf 0349 c1be
00000020: 8b6c a0bf 6cd6 dfbe 5bd3 8dbf 1001 3fbf
00000030: 7f89 f6be ac32 73bf c5f8 79bf c88c 94bd
00000040: 78ac f6be 7955 e2bd 4b0d 5fbf 66b8 1cbf
00000050: 5dd8 60bf eded 73bf 3b0e b5bf 24bb 5bbf
00000060: 0092 95bf ff29 c0bf 59e8 99bf 6e95 1abf
00000070: 34b7 9bbf ba7b d73d f70c b5bf e464 20bf
00000080: 7331 41bf ee4f 75bf 81b3 4ebf 718b 2bbf
00000090: abe3 2abe 7c61 92bf 12db a7bf 9601 97bd
000000a0: a3e7 c9be d501 293b 4bcd 0d3e c3a9 013f
000000b0: f76d 993e c93c 7cbc 62c4 053e 1b86 083e
000000c0: 9569 9bbc ea25 2abf f57f a9bd 9e6e c73d
000000d0: d6a9 d83e fe3f 153d 4d76 c4bd a741 233f
000000e0: 00f8 ac3d 7b7e e13e 6e81 ad3e ee6c 093f
000000f0: b42e 9abe 1a79 9cbd 476a c6be 9506 1a3f
00000100: 7677 98be 82ca 9f3c 2739 db3c 7200 f33c
00000110: fd8e 83bd 3ea2 6cbe 964f 09be 4c86 e03e
00000120: e595 043f 9004 623e 31c1 5a3d 4cfc 013f
00000130: 3041 adbe e050 f73e 5f6d c03e d6bd ce3e
00000140: bca0 2bbf c416 983e e569 acbe 7411 9c3f
00000150: 9c75 b53f b7fb b1be 362e 493f 0a08 e13e
00000160: 99df edbd 4e9e c0bf c43f a33e d952 8a3f
00000170: 193b 5f3f c981 533f d216 d43e bfd1 483f
00000180: ba90 61be eb9f 8f3f 8241 a63f f2c5 583e
00000190: 0b73 7e3e e545 9fbe 4877 7bbf fefd 9dbd
000001a0: a8da 00bf fd61 fcbe bb4a 8cbd 4bc2 0dbf
000001b0: 66ec 7fbf a3c8 3cbd 2f21 9fbe d674 e9be
000001c0: e771 36bf 2bb3 47bf ba85 09bf 1965 a7be
000001d0: 4fce c1bc 39d4 d3be 8e10 3ebf 79d4 13bf
000001e0: 8430 ebbd 7f5b 073d b16a 6abe e610 cf3e
000001f0: efc1 b03d f357 d6bd 3051 b2be 361e 833d
00000200: 62ef 8dbe 7e23 01bf b49e f7be a8d6 8abe
00000210: 53f3 123e e827 8abe f640 ffbe deb6 56be
00000220: 3453 1abe 4ec7 193e 0d46 d5bd c461 cebd
00000230: d463 d83d 917e 8abf 8053 63bf 7c63 55be
00000240: 12e4 48bf 55aa cebe 40be 20bf 5d12 383e
00000250: d89d 4bbf de67 753e e46f 84bf 93ea 28bf
00000260: b87c 95be 1502 62be 6a87 49bf eaea d93e
00000270: 8bd0 d83e 724c 983d 1603 a6be f6ea 743e
00000280: 0c46 253f ecca 16bf 0ac4 97bf 9733 01bf
00000290: 12a7 efbe a7f1 47bf db61 42be 50ae c4be
000002a0: 93ae 5ebf ab20 4c3f e94b 39bf 1cc5 01bf
000002b0: cc3f ba3d 8cbf 1fbf 9181 2abf 6cab eebd
000002c0: 6ebb ba3e 4fb8 263e be99 34be ee34 893c
000002d0: 0f1d a3be 0a84 c4be 8b39 e0bc e4e6 5dbe
000002e0: c807 17be 0b3c 2ebe bc99 e3ba e080 efbe
000002f0: 45dd 23bf 522d 9bbe 39db 46bf d9ea debc
00000300: 35f1 19be e840 9cbe f747 5cbe 3984 ce3d
00000310: 1a75 6ebe 70da c8ba e053 b63d c832 d93d
00000320: 756f 58be 41bf 3ebe b645 dabe 0d94 683e
00000330: d741 bfbe ccd1 8abd 6364 c3be 9321 f33b
00000340: 7b9c 63bc c4be b6be 196f 80bd 7e56 eebe
00000350: e9f6 f53d 0b0e 45be 323a 4cbe f674 ed3d
00000360: 95de 2fbe b654 d4bd 8357 d83d 64f7 9d3c
00000370: 01e1 de3e add1 67bf 4e0f 43bf 4d6e 30bf
00000380: a97d 96be ad97 8dbf 9a6e 99be 3fef b0be
00000390: 258a 6dbf fc83 203f feb4 74bf cc4b 9abf
000003a0: a976 b6bd 157e 7ebe 0f50 37bf 75de 4d3e
000003b0: bb8d 1f3e ebd7 b6be c0f4 16bf 1e7e f93d
000003c0: 5192 e7be d866 a2bf 0469 49bf dfa8 afbe
000003d0: a4ea 2dbf 0aa6 69bf d3d7 4abf ad9a 25bf
000003e0: 747d 2bbf 33b7 c23e 20b3 83bf f7c7 76bf
000003f0: 8d7f 4abf 1aa5 01bf 5dce 29bf 8fbb ddbe

light.trunk.4.bias f4 [20]
-0.40431735 -0.5075863 0.19848633 0.14688437 0.47165412 -0.49324983 0.036575925 -0.1966653
-0.0663438 -0.15045293 -0.029266188 -0.2930757 -0.46789435 -0.1254933 -0.18066202 -0.050728396
-0.04268833 -0.3537014 -0.36271074 -0.4761877
00000000: af02 cfbe 2df1 01bf 0040 4b3e db68 163e
00000010: a67c f13e 3e8b fcbe a3d0 153d a162 49be
00000020: 42df 87bd 5510 1abe a5bf efbc 050e 96be
00000030: d98f efbe 5181 00be 77ff 38be 94c8 4fbd
00000040: f5d9 2ebd 5a18 b5be 39b5 b9be e0ce f3be

light.intensity_head.0.weight f4 [20, 20]
-2.1093647 -1.3534119 -1.3015283 -0.49800727 -1.0899858 -1.249232 -0.24894418 -1.6470317
-1.0875394 -0.79982775 -0.68029445 -1.6925194 -1.2008137 -1.5738488 -1.8101844 -0.5191496
-0.38923168 -1.2113446 -1.2752755 -1.640814 -0.8320736 -0.43823722 -1.3870195 -0.6666049
-1.6360593 -0.73788553 -0.62401676 -0.36745626 -1.0795193 -0.91473716 -0.52203506 -0.5332011
-0.7090853 -0.49680924 -0.8325191 -0.13061008 -0.75055116 -0.55538833 -0.754362 -0.9001972
0.10146475 0.8509074 -0.30920833 0.016260399 -0.7166459 0.29547983 -0.2718651 0.09790171
0.5926652 -0.09209743 0.15057904 0.3573815 0.019211035 0.46699384 0.32838723 -1.057493
-0.3825197 0.4005093 -0.055880457 0.097040564 -0.48317772 -0.08543762 0.07448319 0.40510675
-0.12700029 0.11206588 0.65211445 -0.17690198 -0.1861669 0.25427014 -0.1646913 -0.32585287
0.1460815 -0.16965435 -0.22330059 0.60208035 0.32489267 -0.65790963 -0.19883363 -0.3598754
0.068580575 -0.10370131 -0.22167042 0.15563641 -0.04843049 -0.08243542 0.74461526 -0.30372545
-0.1136628 0.4510064 0.32084736 -0.0801204 -0.41921255 0.03761739 -0.035562 0.47792104
0.6098703 -0.11149962 -0.5158414 -0.42882565 -0.9141581 -1.0277791 -0.5813373 0.38068333
-0.56878114 -0.74752957 0.80815953 -0.725569 -0.6657741 0.605136 0.003396087 -1.1156093
-0.71145993 -1.1068326 -1.1461616 0.53446275 0.34575054 -1.1468813 -0.9570745 -0.91601074
-0.44585687 0.17838033 -0.18421867 0.8816721 0.38368115 0.13838325 0.70980096 -0.5913741
0.03999802 0.477523 0.6864105 -0.25084782 -0.071376644 -0.19865867 -0.28186628 0.5339856
0.43286926 -0.21990657 -0.49403235 -0.21497294 -1.0651581 -1.089568 -0.2999174 0.13497393
-0.43077433 -0.9912073 0.13985428 -1.0649165 -0.96638083 0.4723136 0.49480543 -0.68939644
-0.70024127 -1.2542242 -0.96790993 0.35460377 -0.1539042 -1.2926791 -0.8407877 -1.0396881
-0.59430116 0.25612462 0.26448736 0.16822812 0.026761793 0.059818912 0.1460153 -0.19115284
0.01871279 0.22388387 0.3445976 -0.1732228 -0.29084358 -0.093282595 -0.34701848 0.7707695
0.11465882 -0.045540597 -0.48876217 -0.39640418 -0.4332572 -1.2278728 -0.60599476 -0.924308
-0.12697339 -0.6514063 -1.2744372 -0.34550357 -0.8760274 -0.9002297 -0.9788323 -0.73567295
-1.2129948 -0.61156183 -0.8448358 -1.0726898 -1.0846117 -0.66728723 -0.97830594 -0.30734816
-0.6283482 -0.1379105 0.29304683 0.4408909 -0.30336425 0.3208551 0.32324168 -0.31518742
-0.2739687 0.5127697 0.649813 -0.027791057 -0.12596877 -0.15077834 -0.4417443 0.47580084
-0.008587195 -0.4276095 0.14499128 -0.3769724 -0.035264205 0.09719722 -0.007311732 -0.9995639
-0.14644894 -0.4832437 -0.76973 -0.2685436 -0.25981718 -0.73387295 -0.49980763 -0.16488715
-0.4301291 0.07782262 -0.4099287 -1.0799974 -1.1430284 -0.072483286 -0.07575497 -0.042074904
0.030959548 0.33145484 -0.5450749 -0.83586776 -0.48440674 -0.24643216 -1.0780004 0.18348478
-0.050612275 -1.0886333 -0.41195056 -0.30307266 -0.27074915 0.28389317 -0.51967067 -1.1359665
00000000: d5ff 06c0 9a3c adbf 7b98 a6bf cffa febe
00000010: a884 8bbf d6e6 9fbf 39eb 7ebe efd1 d2bf
00000020: 7e34 8bbf 83c1 4cbf c727 2ebf 7aa4 d8bf
00000030: 43b4 99bf e173 c9bf 1fb4 e7bf fde6 04bf
00000040: 6049 c7be 570d 9bbf 3a3c a3bf 3106 d2bf
00000050: c702 55bf a160 e0be db89 b1bf 9ea6 2abf
00000060: 646a d1bf 11e6 3cbf 90bf 1fbf 3a23 bcbe
00000070: b02d 8abf 372c 6abf 17a4 05bf de7f 08bf
00000080: 9d86 35bf c85d febe f91f 55bf a6be 05be
00000090: 1f24 40bf ee2d 0ebf de1d 41bf 5373 66bf
000000a0: c0cc cf3d 11d5 593f 8e50 9ebe 8734 853c
000000b0: 1b76 37bf 2249 973e e731 8bbe b180 c83d
000000c0: e8b8 173f 949d bcbd 6431 1a3e b5fa b63e
000000d0: 7660 9d3c d119 ef3e 5f22 a83e ee5b 87bf
000000e0: 9fd9 c3be 8e0f cd3e e8e2 64bd 34bd c63d
000000f0: 1263 f7be ebf9 aebd a58a 983d 276a cf3e
00000100: 5d0c 02be cc82 e53d f9f0 263f cb25 35be
00000110: 89a2 3ebe b22f 823e d6a4 28be 30d6 a6be
00000120: 6496 153e dfb9 2dbe e9a8 64be f021 1a3f
00000130: 5558 a63e c46c 28bf 0b9b 4bbe 9741 b8be
00000140: f973 8c3d 5a61 d4bd 92fd 62be 275f 1f3e
00000150: 0d5f 46bd e7d3 a8bd 1b9f 3e3f e781 9bbe
00000160: 0bc8 e8bd 50ea e63e 1b46 a43e 2a16 a4bd
00000170: 07a3 d6be b114 1a3d 76a9 11bd 11b2 f43e
00000180: 7620 1c3f ea59 e4bd 2f0e 04bf 098f dbbe
00000190: 4406 6abf 448e 83bf 85d2 14bf ede8 c23e
000001a0: a49b 11bf 195e 3fbf 8be3 4e3f e4be 39bf
000001b0: 2c70 2abf 31ea 1a3f e390 5e3b 49cc 8ebf
000001c0: 3d22 36bf b1ac 8dbf 6cb5 92bf 8dd2 083f
000001d0: 3706 b13e 02cd 92bf d602 75bf ae7f 6abf
000001e0: 5a47 e4be 55a9 363e d2a3 3cbe 43b5 613f
000001f0: db71 c43e 57b4 0d3e 84b5 353f 4b64 17bf
00000200: f7d4 233d e57d f43e 99b8 2f3f 206f 80be
00000210: eb2d 92bd 2e6d 4bbe c750 90be 48b3 083f
00000220: 0aa1 dd3e 302f 61be cff1 fcbe de21 5cbe
00000230: 1a57 88bf f776 8bbf c68e 99be 9b36 0a3e
00000240: 748e dcbe c3bf 7dbf f635 0f3e 2f4f 88bf
00000250: bc64 77bf 17d3 f13e 2357 fd3e 497c 30bf
00000260: 0343 33bf 6b8a a0bf f2c8 77bf a08e b53e
00000270: 1099 1dbe 8276 a5bf dd3d 57bf 8014 85bf
00000280: 1f24 18bf c422 833e e36a 873e fe43 2c3e
00000290: 8c3b db3c ad04 753d 0985 153e 92bd 43be
000002a0: 914b 993c d041 653e 196f b03e 5161 31be
000002b0: 73e9 94be f20a bfbd 68ac b1be 2651 453f
000002c0: 3ed2 ea3d c788 3abd 093f fabe 7df5 cabe
000002d0: e3d3 ddbe f02a 9dbf 7922 1bbf 739f 6cbf
000002e0: 5005 02be 90c2 26bf c220 a3bf d8e5 b0be
000002f0: 5543 60bf 7475 66bf c194 7abf 1055 3cbf
00000300: 6a43 9bbf 518f 1cbf 2947 58bf e64d 89bf
00000310: 8ed4 8abf 56d3 2abf 4272 7abf bd5c 9dbe
00000320: 6ddb 20bf 6938 0dbe 3c0a 963e 74bc e13e
00000330: 8f52 9bbe 1f47 a43e ef7f a53e 3f60 a1be
00000340: a045 8cbe e044 033f 255a 263f 12aa e3bc
00000350: f5fd 00be a365 1abe 4f2c e2be 2b9c f33e
00000360: 4eb1 0cbc a2ef dabe 9878 143e 8702 c1be
00000370: 3371 10bd 560f c73d 4197 efbb 6be3 7fbf
00000380: b6f6 15be b86b f7be 060d 45bf 8c7e 89be
00000390: c206 85be 19df 3bbf c9e6 ffbe 2dd8 28be
000003a0: e239 dcbe 7761 9f3d 2de2 d1be 5b3d 8abf
000003b0: c14e 92bf 1e72 94bd 6c25 9bbd bc56 2cbd
000003c0: e19e fd3c 73b4 a93e 078a 0bbf 6efb 55bf
000003d0: 2904 f8be b658 7cbe ebfb 89bf 6fe3 3b3e
000003e0: d14e 4fbd 5658 8bbf 2feb d2be 572c 9bbe
000003f0: a29f 8abe 725a 913e 2309 05bf 5a67 91bf

light.intensity_head.0.bias f4 [20]
-1.0851446 -1.0545313 -0.123518184 -0.21909387 -0.08969654 -0.5827139 -0.033637904 -0.650986
-0.09886219 -0.23114447 -0.0036519095 -0.12843998 -0.15100263 -0.23155841 0.011108399 -0.3125193
-0.03900003 -0.026511671 -0.8976471 -0.008873636
00000000: 05e6 8abf e2fa 86bf 1af7 fcbd 255a 60be
00000010: d2b2 b7bd bd2c 15bf e6c7 09bd 05a7 26bf
00000020: 4378 cabd 23b1 6cbe e054 6fbb c585 03be
00000030: 6fa0 1abe a61d 6dbe 0100 363c 8802 a0be
00000040: 7fbe 1fbd 012f d9bc 33cc 65bf ba62 11bc

light.intensity_head.2.weight f4 [1, 20]
-0.071612194 -0.19933294 -0.57803273 0.13812117 0.40198258 0.18799554 0.4236016 0.11208656
0.34203267 -0.29463124 0.3614072 -0.41131234 -0.34138787 -0.26265275 0.5218072 -0.15923561
0.47780553 0.18194418 0.019045008 0.5734345
00000000: 6aa9 92bd ef1d 4cbe f4f9 13bf a36f 0d3e
00000010: a9d0 cd3e e781 403e 4fe2 d83e a38d e53d
00000020: e81e af3e e8d9 96be 5d0a b93e 8897 d2be
00000030: 64ca aebe 6c7a 86be 2895 053f a90e 23be
00000040: eda2 f43e 934f 3a3e 4704 9c3c 9acc 123f

light.chroma_head.0.weight f4 [20, 20]
-0.19797835 -0.06540824 -1.1514491 -0.09334318 0.06545874 -0.47723463 0.4221017 -0.044230193
0.17218028 0.4257914 0.08991975 0.14445351 -0.25640693 -0.06040426 -0.103248626 0.73653764
0.35634574 0.1155387 0.38221923 0.37367573 -0.19797835 -0.06540824 -1.1514491 -0.09334318
0.06545874 -0.47723463 0.4221017 -0.044230193 0.17218028 0.4257914 0.08991975 0.14445351
-0.25640693 -0.06040426 -0.103248626 0.73653764 0.35634574 0.1155387 0.38221923 0.37367573
-0.19797835 -0.06540824 -1.1514491 -0.09334318 0.06545874 -0.47723463 0.4221017 -0.044230193
0.17218028 0.4257914 0.08991975 0.14445351 -0.25640693 -0.06040426 -0.103248626 0.73653764
0.35634574 0.1155387 0.38221923 0.37367573 -0.19797835 -0.06540824 -1.1514491 -0.09334318
0.06545874 -0.47723463 0.4221017 -0.044230193 0.17218028 0.4257914 0.08991975 0.14445351
-0.25640693 -0.06040426 -0.103248626 0.73653764 0.35634574 0.1155387 0.38221923 0.37367573
-0.19797835 -0.06540824 -1.1514491 -0.09334318 0.06545874 -0.47723463 0.4221017 -0.044230193
0.17218028 0.4257914 0.08991975 0.14445351 -0.25640693 -0.06040426 -0.103248626 0.73653764
0.35634574 0.1155387 0.38221923 0.37367573 -0.19797835 -0.06540824 -1.1514491 -0.09334318
0.06545874 -0.47723463 0.4221017 -0.044230193 0.17218028 0.4257914 0.08991975 0.14445351
-0.25640693 -0.06040426 -0.103248626 0.73653764 0.35634574 0.1155387 0.38221923 0.37367573
-0.19797835 -0.06540824 -1.1514491 -0.09334318 0.06545874 -0.47723463 0.4221017 -0.044230193
0.17218028 0.4257914 0.08991975 0.14445351 -0.25640693 -0.06040426 -0.103248626 0.73653764
0.35634574 0.1155387 0.38221923 0.37367573 -0.19797835 -0.06540824 -1.1514491 -0.09334318
0.06545874 -0.47723463 0.4221017 -0.044230193 0.17218028 0.4257914 0.08991975 0.14445351
-0.25640693 -0.06040426 -0.103248626 0.73653764 0.35634574 0.1155387 0.38221923 0.37367573
-0.19797835 -0.06540824 -1.1514491 -0.09334318 0.06545874 -0.47723463 0.4221017 -0.044230193
0.17218028 0.4257914 0.08991975 0.14445351 -0.25640693 -0.06040426 -0.103248626 0.73653764
0.35634574 0.1155387 0.38221923 0.37367573 -0.19797835 -0.06540824 -1.1514491 -0.09334318
0.06545874 -0.47723463 0.4221017 -0.044230193 0.17218028 0.4257914 0.08991975 0.14445351
-0.25640693 -0.06040426 -0.103248626 0.73653764 0.35634574 0.1155387 0.38221923 0.37367573
-0.19797835 -0.06540824 -1.1514491 -0.09334318 0.06545874 -0.47723463 0.4221017 -0.044230193
0.17218028 0.4257914 0.08991975 0.14445351 -0.25640693 -0.06040426 -0.103248626 0.73653764
0.35634574 0.1155387 0.38221923 0.37367573 -0.19797835 -0.06540824 -1.1514491 -0.09334318
0.06545874 -0.47723463 0.4221017 -0.044230193 0.17218028 0.4257914 0.08991975 0.14445351
-0.25640693 -0.06040426 -0.103248626 0.73653764 0.35634574 0.1155387 0.38221923 0.37367573
-0.19797835 -0.06540824 -1.1514491 -0.09334318 0.06545874 -0.47723463 0.4221017 -0.044230193
0.17218028 0.4257914 0.08991975 0.14445351 -0.25640693 -0.06040426 -0.103248626 0.73653764
00000000: d6ba 4abe c1f4 85bd af62 93bf b62a bfbd
00000010: 3b0f 863d 1958 f4be b71d d83e b82a 35bd
00000020: 0750 303e 5501 da3e d927 b83d 9feb 133e
00000030: c547 83be 756a 77bd 0474 d3bd bb8d 3c3f
00000040: f372 b63e 8e9f ec3d 3db2 c33e 6d52 bf3e
00000050: d6ba 4abe c1f4 85bd af62 93bf b62a bfbd
00000060: 3b0f 863d 1958 f4be b71d d83e b82a 35bd
00000070: 0750 303e 5501 da3e d927 b83d 9feb 133e
00000080: c547 83be 756a 77bd 0474 d3bd bb8d 3c3f
00000090: f372 b63e 8e9f ec3d 3db2 c33e 6d52 bf3e
000000a0: d6ba 4abe c1f4 85bd af62 93bf b62a bfbd
000000b0: 3b0f 863d 1958 f4be b71d d83e b82a 35bd
000000c0: 0750 303e 5501 da3e d927 b83d 9feb 133e
000000d0: c547 83be 756a 77bd 0474 d3bd bb8d 3c3f
000000e0: f372 b63e 8e9f ec3d 3db2 c33e 6d52 bf3e
000000f0: d6ba 4abe c1f4 85bd af62 93bf b62a bfbd
00000100: 3b0f 863d 1958 f4be b71d d83e b82a 35bd
00000110: 0750 303e 5501 da3e d927 b83d 9feb 133e
00000120: c547 83be 756a 77bd 0474 d3bd bb8d 3c3f
00000130: f372 b63e 8e9f ec3d 3db2 c33e 6d52 bf3e
00000140: d6ba 4abe c1f4 85bd af62 93bf b62a bfbd
00000150: 3b0f 863d 1958 f4be b71d d83e b82a 35bd
00000160: 0750 303e 5501 da3e d927 b83d 9feb 133e
00000170: c547 83be 756a 77bd 0474 d3bd bb8d 3c3f
00000180: f372 b63e 8e9f ec3d 3db2 c33e 6d52 bf3e
00000190: d6ba 4abe c1f4 85bd af62 93bf b62a bfbd
000001a0: 3b0f 863d 1958 f4be b71d d83e b82a 35bd
000001b0: 0750 303e 5501 da3e d927 b83d 9feb 133e
000001c0: c547 83be 756a 77bd 0474 d3bd bb8d 3c3f
000001d0: f372 b63e 8e9f ec3d 3db2 c33e 6d52 bf3e
000001e0: d6ba 4abe c1f4 85bd af62 93bf b62a bfbd
000001f0: 3b0f 863d 1958 f4be b71d d83e b82a 35bd
00000200: 0750 303e 5501 da3e d927 b83d 9feb 133e
00000210: c547 83be 756a 77bd 0474 d3bd bb8d 3c3f
00000220: f372 b63e 8e9f ec3d 3db2 c33e 6d52 bf3e
00000230: d6ba 4abe c1f4 85bd af62 93bf b62a bfbd
00000240: 3b0f 863d 1958 f4be b71d d83e b82a 35bd
00000250: 0750 303e 5501 da3e d927 b83d 9feb 133e
00000260: c547 83be 756a 77bd 0474 d3bd bb8d 3c3f
00000270: f372 b63e 8e9f ec3d 3db2 c33e 6d52 bf3e
00000280: d6ba 4abe c1f4 85bd af62 93bf b62a bfbd
00000290: 3b0f 863d 1958 f4be b71d d83e b82a 35bd
000002a0: 0750 303e 5501 da3e d927 b83d 9feb 133e
000002b0: c547 83be 756a 77bd 0474 d3bd bb8d 3c3f
000002c0: f372 b63e 8e9f ec3d 3db2 c33e 6d52 bf3e
000002d0: d6ba 4abe c1f4 85bd af62 93bf b62a bfbd
000002e0: 3b0f 863d 1958 f4be b71d d83e b82a 35bd
000002f0: 0750 303e 5501 da3e d927 b83d 9feb 133e
00000300: c547 83be 756a 77bd 0474 d3bd bb8d 3c3f
00000310: f372 b63e 8e9f ec3d 3db2 c33e 6d52 bf3e
00000320: d6ba 4abe c1f4 85bd af62 93bf b62a bfbd
00000330: 3b0f 863d 1958 f4be b71d d83e b82a 35bd
00000340: 0750 303e 5501 da3e d927 b83d 9feb 133e
00000350: c547 83be 756a 77bd 0474 d3bd bb8d 3c3f
00000360: f372 b63e 8e9f ec3d 3db2 c33e 6d52 bf3e
00000370: d6ba 4abe c1f4 85bd af62 93bf b62a bfbd
00000380: 3b0f 863d 1958 f4be b71d d83e b82a 35bd
00000390: 0750 303e 5501 da3e d927 b83d 9feb 133e
000003a0: c547 83be 756a 77bd 0474 d3bd bb8d 3c3f
000003b0: f372 b63e 8e9f ec3d 3db2 c33e 6d52 bf3e
000003c0: d6ba 4abe c1f4 85bd af62 93bf b62a bfbd
000003d0: 3b0f 863d 1958 f4be b71d d83e b82a 35bd
000003e0: 0750 303e 5501 da3e d927 b83d 9feb 133e
000003f0: c547 83be 756a 77bd 0474 d3bd bb8d 3c3f

light.chroma_head.0.bias f4 [20]
-0.6685993 -0.6685993 -0.6685993 -0.6685993 -0.6685993 -0.6685993 -0.6685993 -0.6685993
-0.6685993 -0.6685993 -0.6685993 -0.6685993 -0.6685993 -0.6685993 -0.6685993 -0.6685993
-0.6685993 -0.6685993 -0.6685993 -0.6685993
00000000: 5329 2bbf 5329 2bbf 5329 2bbf 5329 2bbf
00000010: 5329 2bbf 5329 2bbf 5329 2bbf 5329 2bbf
00000020: 5329 2bbf 5329 2bbf 5329 2bbf 5329 2bbf
00000030: 5329 2bbf 5329 2bbf 5329 2bbf 5329 2bbf
00000040: 5329 2bbf 5329 2bbf 5329 2bbf 5329 2bbf

light.chroma_head.2.weight f4 [3, 20]
-0.024892429 -0.024892429 -0.024892429 -0.024892429 -0.024892429 -0.024892429 -0.024892429 -0.024892429
-0.024892429 -0.024892429 -0.024892429 -0.024892429 -0.024892429 -0.024892429 -0.024892429 -0.024892429
-0.024892429 -0.024892429 -0.024892429 -0.024892429 0.19434752 0.19434752 0.19434752 0.19434752
0.19434752 0.19434752 0.19434752 0.19434752 0.19434752 0.19434752 0.19434752 0.19434752
0.19434752 0.19434752 0.19434752 0.19434752 0.19434752 0.19434752 0.19434752 0.19434752
-0.024132416 -0.024132416 -0.024132416 -0.024132416 -0.024132416 -0.024132416 -0.024132416 -0.024132416
-0.024132416 -0.024132416 -0.024132416 -0.024132416 -0.024132416 -0.024132416 -0.024132416 -0.024132416
-0.024132416 -0.024132416 -0.024132416 -0.024132416
00000000: 35eb cbbc 35eb cbbc 35eb cbbc 35eb cbbc
00000010: 35eb cbbc 35eb cbbc 35eb cbbc 35eb cbbc
00000020: 35eb cbbc 35eb cbbc 35eb cbbc 35eb cbbc
00000030: 35eb cbbc 35eb cbbc 35eb cbbc 35eb cbbc
00000040: 35eb cbbc 35eb cbbc 35eb cbbc 35eb cbbc
00000050: 0903 473e 0903 473e 0903 473e 0903 473e
00000060: 0903 473e 0903 473e 0903 473e 0903 473e
00000070: 0903 473e 0903 473e 0903 473e 0903 473e
00000080: 0903 473e 0903 473e 0903 473e 0903 473e
00000090: 0903 473e 0903 473e 0903 473e 0903 473e
000000a0: 58b1 c5bc 58b1 c5bc 58b1 c5bc 58b1 c5bc
000000b0: 58b1 c5bc 58b1 c5bc 58b1 c5bc 58b1 c5bc
000000c0: 58b1 c5bc 58b1 c5bc 58b1 c5bc 58b1 c5bc
000000d0: 58b1 c5bc 58b1 c5bc 58b1 c5bc 58b1 c5bc
000000e0: 58b1 c5bc 58b1 c5bc 58b1 c5bc 58b1 c5bc

light.chroma_head.2.bias f4 [3]
0.73672104 -0.21030179 -0.7446946
00000000: c099 3c3f 5a59 57be 4ea4 3ebf

so3 f8 [1, 1, 3]
-0.008999999999999998 -0.20299999999999999 0.31099999999999994
00000000: 3adf 4f8d 976e 82bf 9543 8b6c e7fb c9bf
00000010: 8095 438b 6ce7 d33f
