model_parameters_RGB.pth (torch, 8435 bytes, 10 tensors)

light._t_vec f8 [1, 1, 3]
0	0x3fd4cccccccccccd	0.325
1	0xbfb16872b020c49c	-0.068
2	0xbfb0624dd2f1a9fc	-0.064

light.light_color_log f4 [3]
0	0x00000000	0.0
1	0x00000000	0.0
2	0x00000000	0.0

light.trunk.0.weight f4 [20, 5]
0	0x3e5d5526	0.21614513
1	0xbea83155	-0.32850137
2	0xbed622e1	-0.41823485
3	0xbf48a8c6	-0.7838253
4	0xbeaba61f	-0.33525178
5	0x3eeb3590	0.45939302
6	0xbdbc3189	-0.091891356
7	0xbf160602	-0.5860292
8	0xbf1a9ade	-0.6039256
9	0xbf47ba2a	-0.7801844
10	0xbef6e023	-0.48217878
11	0xbe91c590	-0.2847104
12	0xbd026aff	-0.03184032
13	0xbe01d01e	-0.12677047
14	0xbe9e1274	-0.30873454
15	0x3eedce49	0.46446446
16	0xbebdaa0e	-0.37043804
17	0xbe6c2bba	-0.23063555
18	0xbf45b02c	-0.7722194
19	0xbf1cd8d5	-0.6126836
20	0xbdc6daa9	-0.09709675
21	0xbef12bd6	-0.47103757
22	0xbd5147fb	-0.051094037
23	0xbe22b7cd	-0.15890427
24	0x3f54eff9	0.8317867
25	0x3f48201a	0.78173983
26	0xbf18f85a	-0.59753954
27	0xbe44bc2d	-0.19212408
28	0xbf294703	-0.6612398
29	0xbf934b46	-1.1507347
30	0xbec20002	-0.3789063
31	0x3e2af749	0.16695894
32	0x3ebf42bf	0.3735561
33	0x3ebe232c	0.3713621
34	0xbe4139fe	-0.18869779
35	0x3e5795dc	0.2105326
36	0x3e3e0cee	0.1855962
37	0x3e97fd39	0.2968538
38	0xbf6c385d	-0.92273504
39	0x3e965d19	0.29367903
40	0xbedfe34b	-0.43728098
41	0xbede0dfb	-0.4337004
42	0x3ede1344	0.43374074
43	0xbcfdcf04	-0.030982502
44	0xbd8ddac9	-0.069264956
45	0xbee3d116	-0.44495457
46	0xbeb31a06	-0.34980792
47	0xbc9f122e	-0.019417848
48	0x3ed91666	0.423999
49	0x3fb7b514	1.4352136
50	0xbefb8bfb	-0.49130234
51	0x3e291da9	0.1651522
52	0x3e863d18	0.26218486
53	0x3f57f3a6	0.84356153
54	0xbe783c93	-0.24241857
55	0x3f4deea9	0.8044229
56	0xbc6385e4	-0.0138869025
57	0x3df5ab54	0.11995569
58	0xbf28beb0	-0.65915966
59	0xbf83b465	-1.0289427
60	0x3f577cac	0.8417461
61	0xbe8b1a38	-0.2716844
62	0xbdffda84	-0.124928504
63	0xbf8c13af	-1.0943507
64	0xbf8ff659	-1.1247054
65	0x3e8c6693	0.27422008
66	0x3ed95564	0.4244796
67	0x3dd74140	0.10510492
68	0xbf424ee5	-0.75901634
69	0x3e206f19	0.1566738
70	0x3dd8c5d0	0.10584605
71	0x3eded184	0.43519223
72	0x3be120fb	0.0068703867
73	0xbf478a27	-0.7794518
74	0x3e95de90	0.29271364
75	0x3e281289	0.1641332
76	0x3eceaa30	0.40364218
77	0xbd402f70	-0.04692024
78	0x3f293259	0.6609245
79	0x3e010359	0.12598933
80	0xbf1dae46	-0.61594045
81	0xbddf115a	-0.108919814
82	0xbe5f76e7	-0.21822701
83	0x3e9e521b	0.30922017
84	0xbf155895	-0.5833829
85	0x3f5eb0ea	0.869887
86	0xbe827652	-0.25480896
87	0xbedf98db	-0.43671307
88	0xbf73a0a3	-0.9516699
89	0xbfa90b72	-1.3206618
90	0xbf808e37	-1.00434
91	0xbe04b732	-0.12960508
92	0xbeb5dcca	-0.3552001
93	0x3ec3c62c	0.3823713
94	0x3e8503ea	0.2597955
95	0x3f1f3b48	0.6219983
96	0xbe32cc96	-0.17460856
97	0xbdb1f239	-0.086887784
98	0xbf964e29	-1.1742603
99	0xbf9039bf	-1.1267623

light.trunk.0.bias f4 [20]
0	0x3dd3d7ab	0.1034387
1	0xbe43b0cd	-0.19110413
2	0xbe8788f5	-0.26471677
3	0x3d827e6a	0.06371768
4	0x3ccba4d3	0.024858868
5	0xbea01168	-0.3126328
6	0x3c36cbc3	0.011156979
7	0xbce44005	-0.027862558
8	0xbd139b61	-0.036036853
9	0x3da36090	0.07977402
10	0x3df8b871	0.121445544
11	0x3d2e4bbe	0.042552702
12	0x3db82696	0.08991735
13	0xbab07d81	-0.0013465137
14	0xbc444d6b	-0.0119813485
15	0x3d468adb	0.048472267
16	0xbd286bb2	-0.04111833
17	0x3e261f4f	0.16222881
18	0xbf0de153	-0.5542194
19	0x3e0b1e92	0.1358588

light.trunk.2.weight f4 [20, 20]
0	0xbeb60dc0	-0.35557365
1	0xbdf2ed4e	-0.118616685
2	0xbe7dd9dc	-0.24790138
3	0xbec8f3a5	-0.39248386
4	0x3cf46aec	0.02983614
5	0x3e583351	0.21113326
6	0x3ed5b6fb	0.41741166
7	0x3e26813f	0.16260241
8	0xbe4ce2a6	-0.20008335
9	0xbde41ced	-0.1113833
10	0xbd070955	-0.032967884
11	0xbea001a8	-0.31251264
12	0xbe95f7c1	-0.29290584
13	0xbec29e5c	-0.38011444
14	0xbc350ddf	-0.01105067
15	0x3ed7e5d3	0.4216753
16	0x3e3a69c4	0.18204409
17	0x3d640d43	0.05567671
18	0xbeab1fe0	-0.33422756
19	0xbdf48880	-0.11940098
20	0xbdc216c5	-0.09476999
21	0xbddebb1d	-0.10875533
22	0xbeba2b17	-0.36361
23	0xbe93d234	-0.2887131
24	0xbe4ba239	-0.19886102
25	0x3e439364	0.19099194
26	0xbe04d1d4	-0.12970668
27	0xbec2b148	-0.3802588
28	0x3ce4e660	0.027941883
29	0xbebeb363	-0.37246236
30	0xbd28cdb3	-0.041211795
31	0x3caf3f82	0.021392588
32	0xbe64ea4a	-0.22354999
33	0xbe383fba	-0.1799306
34	0xbea54242	-0.32277113
35	0xbe8faa8b	-0.280598
36	0x3dc34c82	0.09536077
37	0xbef39d03	-0.47580728
38	0x3ead37c0	0.33831596
39	0xbeee154c	-0.46500623
40	0xbec260aa	-0.37964374
41	0x3d204f1d	0.03913795
42	0xbca9a93d	-0.020710582
43	0xbcc3e019	-0.023910569
44	0xbe9d644f	-0.30740592
45	0xbdb3bd14	-0.08776298
46	0x3e8d834e	0.2763924
47	0xbec1fe3d	-0.3788928
48	0x3e50a32d	0.20374747
49	0xbeb7fc94	-0.3593489
50	0xbe89a7a6	-0.26885718
51	0x3e85ab8c	0.26107442
52	0xbde6d791	-0.11271585
53	0xbed58510	-0.4170308
54	0x3d099b6f	0.0335955
55	0x3e8855c0	0.26627922
56	0x3d8b8b79	0.06813712
57	0xbf0d7e77	-0.55271095
58	0x3ea7e0f9	0.32788828
59	0xbdc9c58e	-0.09852134
60	0xbc5b4a3d	-0.013384399
61	0xbedeeab3	-0.43538436
62	0x3e1d4ad6	0.15360579
63	0xbdb4296e	-0.087969646
64	0x3ca5b101	0.020226004
65	0x3dc6fb06	0.09715848
66	0x3e8a67f0	0.27032423
67	0x3e75458c	0.23952311
68	0xbc53fd84	-0.012938861
69	0x3d3ca4c9	0.04605559
70	0x3ec752e5	0.3893043
71	0xbea03cdb	-0.3129643
72	0x3e175f44	0.14782435
73	0x3e57b2a9	0.21064247
74	0xbecf027c	-0.40431583
75	0xbe2feca1	-0.1718011
76	0x3e456b52	0.1927922
77	0xbee3be0b	-0.4448093
78	0x3ca29b42	0.019849423
79	0x3ce392f5	0.027780036
80	0xbef3c213	-0.47609004
81	0xbed2aa6f	-0.41145656
82	0xbe3df847	-0.18551742
83	0xbece845e	-0.40335363
84	0xbe756d7b	-0.23967545
85	0x3ea13afa	0.31490308
86	0xbdf87619	-0.121319
87	0xbed2282e	-0.4104628
88	0xbd9036ee	-0.07041727
89	0xbea26e1c	-0.31724632
90	0xbd85998a	-0.06523426
91	0xbeedd0dd	-0.46448413
92	0x3e52ca84	0.20585066
93	0xbd8b1536	-0.06791155
94	0x3e7bb4ed	0.24580736
95	0x3cde1414	0.027109183
96	0xbe837986	-0.25678653
97	0xbc949d2d	-0.018141354
98	0x3dd09d8b	0.10186299
99	0xbe6d3c30	-0.23167491
100	0x3e5ba8f5	0.2145117
101	0x3dd3baf6	0.10338394
102	0x3e5f0215	0.21778138
103	0x3f273534	0.65315557
104	0xbee18812	-0.44049126
105	0x3ed3b7cb	0.4135116
106	0xbe2716b0	-0.16317248
107	0x3eb661ed	0.35621586
108	0xbe7ada29	-0.24497284
109	0xbe913d1a	-0.2836693
110	0xbee0863f	-0.43852422
111	0x3edea027	0.43481562
112	0x3ed8a876	0.42316025
113	0x3eadb645	0.33928123
114	0x3e9e25b6	0.30888146
115	0xbe2ed2f2	-0.17072657
116	0xbdabdb7e	-0.08391474
117	0x3eaa915f	0.33314034
118	0xbdde5578	-0.108561456
119	0x3f581206	0.844025
120	0xbc89101a	-0.01673131
121	0x3f05668d	0.52109605
122	0xbebc9dd2	-0.36839157
123	0x3e822b31	0.25423577
124	0xbf0ce7b1	-0.55041033
125	0x3e935f5b	0.28783688
126	0xbf0f6b14	-0.56022763
127	0x3e79f622	0.24410298
128	0x3d43ffc4	0.04785134
129	0xbe4c0b50	-0.1992619
130	0xbe91d5d8	-0.28483462
131	0x3dce5804	0.100753814
132	0x3edc8ae7	0.43074724
133	0xbea8e3ff	-0.32986447
134	0x3cfdbaac	0.030972801
135	0xbe147e64	-0.14501339
136	0xbcba5e95	-0.022750178
137	0x3f746965	0.9547332
138	0xbe47ccf4	-0.19511777
139	0x3f3a23e9	0.72711045
140	0xbe0d1205	-0.13776405
141	0xbece3156	-0.40272015
142	0x3ea5a093	0.3234907
143	0x3e3e3582	0.18575099
144	0x3e1611eb	0.14655273
145	0x3e62bdaf	0.22142671
146	0x3c6e2bcb	0.014536808
147	0xbea4c2bc	-0.3217982
148	0x3ccf7768	0.025325492
149	0x3e9778e0	0.29584408
150	0xbd407a24	-0.046991482
151	0xbe931e25	-0.28733936
152	0xbebf3ae8	-0.3734963
153	0xbe70bdcd	-0.23509903
154	0xbdefe464	-0.11713484
155	0xbeb9bbbf	-0.3627605
156	0x3e9dd54e	0.308268
157	0xbe87af4f	-0.26500937
158	0x3d906474	0.0705041
159	0xbe08ce2e	-0.13359901
160	0x3ce3b96b	0.027798375
161	0xbeb78bc1	-0.3584881
162	0xbebf0922	-0.37311655
163	0xbebceead	-0.36900845
164	0xbf1d2601	-0.61386114
165	0xbee0d41b	-0.43911824
166	0xbf2a76c3	-0.66587466
167	0xbdd56a7b	-0.104207
168	0xbe0c4b2d	-0.13700552
169	0xbf1e802d	-0.6191433
170	0x3cc53d4a	0.024077076
171	0xbe8d8e36	-0.2764756
172	0x3dfe1968	0.124071896
173	0xbe3b432f	-0.18287347
174	0xbea9152d	-0.33023968
175	0xbf1fc271	-0.6240607
176	0xbeeb3b8e	-0.45943874
177	0xbe9aa926	-0.30207175
178	0xbec86eb0	-0.39146948
179	0xbf1effb7	-0.6210894
180	0x3e194d4c	0.14970893
181	0xbe3d1b0d	-0.1846735
182	0x3bc16676	0.005902107
183	0xbecde792	-0.40215737
184	0x3d614839	0.055000518
185	0xbd97aba5	-0.074057855
186	0xba6da945	-0.00090660556
187	0xbb29a401	-0.0025885107
188	0x3e996947	0.29963133
189	0xbe551d89	-0.20812048
190	0x3e046947	0.12930785
191	0x3d8e9d7d	0.06963632
192	0x3e64620a	0.22303024
193	0x3eb47cb7	0.352514
194	0xbd6b5d77	-0.057462182
195	0x3ee635de	0.44962972
196	0xbda04130	-0.078249335
197	0xbec669c3	-0.38752565
198	0xbdc1b91e	-0.094591364
199	0xbef6b9d9	-0.48188666
200	0x3eb0ccd6	0.34531277
201	0x3ecb1dc2	0.3967114
202	0xbe84ae01	-0.25914004
203	0x3c9ce440	0.019151807
204	0xbd7ec00a	-0.06219486
205	0x3d9b0d07	0.07570844
206	0xbd633f96	-0.055480562
207	0xbec8194b	-0.39081797
208	0x3ca5a5bc	0.02022063
209	0xbe9020b0	-0.2814994
210	0xbea4bf10	-0.3217702
211	0x3e64a000	0.2232666
212	0x3f40e906	0.75355566
213	0xbe6e21c6	-0.23255071
214	0x3d395b85	0.045253295
215	0xbe815fcc	-0.252684
216	0x3daddcfe	0.084894165
217	0x3f0c20eb	0.5473773
218	0xbef59f67	-0.47973177
219	0x3f415e21	0.75534254
220	0x3efc8bea	0.49325496
221	0xb9d48e8f	-0.00040542005
222	0x3e5e2888	0.21695149
223	0x3d901b43	0.0703645
224	0xbd2ea158	-0.04263434
225	0xbe009ecf	-0.1256058
226	0x3e58d953	0.21176653
227	0x3ede6418	0.4343574
228	0x3e908f63	0.28234395
229	0xbeffdfe1	-0.49975494
230	0xbea510e8	-0.3223946
231	0x3f258aba	0.64664805
232	0x3f0270c3	0.5095331
233	0x3ddc4a5d	0.10756371
234	0xbe35c396	-0.17750391
235	0xbe8e994b	-0.27851328
236	0x3e7c7bac	0.24656552
237	0x3f89b7e6	1.0759246
238	0xbeee3ed4	-0.4653231
239	0x3ed2e349	0.4118903
240	0xbe2122ef	-0.15735982
241	0x3e19591e	0.14975402
242	0x3c2ac048	0.01042182
243	0xbe226d0e	-0.15861914
244	0xbe7f72e6	-0.24946174
245	0x3d669c3e	0.056301348
246	0x3ebfe2d3	0.3747774
247	0xbd4da883	-0.050209533
248	0x3e939c7d	0.2883033
249	0x3e130a01	0.14359285
250	0x3e59638a	0.21229377
251	0x3d1ddbdc	0.038539752
252	0x3e6f707e	0.23382756
253	0xbe371058	-0.17877328
254	0xbe5ab611	-0.21358515
255	0x3eadc7f6	0.3394162

light.trunk.2.bias f4 [20]
0	0x3ceba6ab	0.028765997
1	0xbc491a0f	-0.012274279
2	0x3bd63db0	0.0065381154
3	0xbce729e8	-0.028218225
4	0xbca5f3f4	-0.020257927
5	0xbdae85e8	-0.08521634
6	0xbe3de388	-0.18543828
7	0xbc95a886	-0.018268835
8	0xbea24d80	-0.31699753
9	0x3d872334	0.06598511
10	0xbe1de838	-0.15420616
11	0xbd2f0dc7	-0.04273775
12	0x3c4f18fa	0.012640232
13	0xbd9bea07	-0.076129965
14	0x3ca3647d	0.019945377
15	0xbfa2d14a	-1.272012
16	0xbd93cf23	-0.072172426
17	0xbcc5e41a	-0.024156619
18	0x3c7b9e22	0.015357526
19	0xbc40983b	-0.011755045

light.intensity_head.0.weight f4 [1, 20]
0	0x3f0b2a14	0.5436108
1	0x3ed5231b	0.41628346
2	0x3f051aba	0.51993906
3	0x3e6d8645	0.23195751
4	0x3e6ba162	0.23010781
5	0xbf0baab1	-0.5455733
6	0xbf0d1765	-0.5511382
7	0x3ed62d73	0.4183155
8	0xbc5dcf8c	-0.013538253
9	0x3f2129bc	0.62954307
10	0xbf03561b	-0.5130326
11	0xbe438460	-0.19093466
12	0x3f0a5650	0.5403795
13	0x3e3ec326	0.1862913
14	0x3e8d5c9c	0.27609718
15	0xbe1b1141	-0.151433
16	0x3dfc3565	0.12314872
17	0x3ec17118	0.37781596
18	0x3f123d84	0.57125115
19	0x3e673f63	0.22582774

light.chroma_head.0.weight f4 [3, 20]
0	0xbc6440e0	-0.013931483
1	0xbdc60f53	-0.096708916
2	0x3d2b266d	0.041784693
3	0x3c8cdc91	0.017195018
4	0xbe4212c9	-0.18952478
5	0x3e766674	0.2406252
6	0xbf280413	-0.65631217
7	0x3e026d06	0.12736902
8	0xbef1bd2e	-0.47214645
9	0xbdd93073	-0.10604944
10	0xbe461eb1	-0.19347645
11	0x3ee866c1	0.45390895
12	0x3dd5ac85	0.10433296
13	0xbe0ae3db	-0.13563482
14	0x3dc1da2d	0.09465442
15	0xc02f284c	-2.7368345
16	0xbdc25391	-0.09488595
17	0x3d707590	0.058705866
18	0x3cb92ad9	0.02260344
19	0xbc133d13	-0.008986729
20	0xbd67301c	-0.056442365
21	0xbda040e8	-0.0782488
22	0xbc959c90	-0.018263131
23	0xbc507c71	-0.012724982
24	0xbdcdfa41	-0.10057498
25	0x3e404e92	0.18779972
26	0xbd48fcdd	-0.049069274
27	0x3d103c46	0.03521373
28	0xbe056b12	-0.13029125
29	0xbd15412d	-0.03643911
30	0x3d4718e0	0.048607707
31	0x3e9159fe	0.2838897
32	0xbb87276d	-0.004124573
33	0xbdc78343	-0.09741833
34	0x3c886392	0.016649041
35	0xbfb41964	-1.4070249
36	0xbd0e8db5	-0.03480311
37	0xbd16e60c	-0.036840484
38	0xbce7ef10	-0.028312236
39	0xbc7dd26b	-0.015492062
40	0xbd27df68	-0.04098454
41	0x3d2ded68	0.042462736
42	0xbdea9db9	-0.114558645
43	0xbe009e19	-0.1256031
44	0x3e174380	0.14771843
45	0xbc94e874	-0.018177249
46	0x3f94e247	1.1631554
47	0xbeaf12a6	-0.34193915
48	0x3ea7a843	0.3274556
49	0x3ce935a5	0.028467963
50	0x3f220d1a	0.6330124
51	0xbef7f4cb	-0.4842895
52	0xbe424f33	-0.18975525
53	0x3ddbb90a	0.10728653
54	0xbeab71ae	-0.33485168
55	0x40680a12	3.6256146
56	0x3cbfeb80	0.023427725
57	0xbe0e23a3	-0.13880782
58	0xbdd67286	-0.10471062
59	0xbdbe54eb	-0.092935406

light.chroma_head.0.bias f4 [3]
0	0x3de1040d	0.10987101
1	0x3cac1465	0.021005819
2	0xbe495e76	-0.1966494

so3 f8 [1, 1, 3]
0	0xbf80624dd2f1a9fd	-0.008000000000000002
1	0xbfc95810624dd2f3	-0.19800000000000004
2	0x3fd072b020c49ba7	0.25700000000000006
