model_parameters_RGB.pth (torch, 8435 bytes, 10 tensors)

light._t_vec f8 [1, 1, 3]
0	0x3fd45a1cac083127	0.318
1	0xbfb020c49ba5e354	-0.063
2	0x3f889374bc6a7efa	0.012

light.light_color_log f4 [3]
0	0x00000000	0.0
1	0x00000000	0.0
2	0x00000000	0.0

light.trunk.0.weight f4 [20, 5]
0	0x3db47b29	0.088125534
1	0xbf06ac05	-0.5260623
2	0xbf1eb0ac	-0.6198833
3	0xbf7fa1bf	-0.9985618
4	0xbf017349	-0.50566536
5	0x3eabebe3	0.33578405
6	0xbe8dcb07	-0.2769396
7	0xbf46fe0a	-0.7773138
8	0xbf564d2e	-0.83711517
9	0xbfb270f5	-1.3940722
10	0xbf31266f	-0.6919927
11	0xbf87acf0	-1.0599651
12	0xbf3b9166	-0.73268735
13	0xbf0d612c	-0.552264
14	0xbe3472a6	-0.1762186
15	0x3edf3a23	0.43599042
16	0xbef0254c	-0.46903455
17	0xbeac6d4c	-0.33677137
18	0xbf6c3256	-0.92264307
19	0xbf9eeee6	-1.2416656
20	0x3f55ca12	0.8351146
21	0xbedf1462	-0.43570238
22	0xbdcea9b5	-0.10090963
23	0x3ed4927d	0.41518012
24	0x3f63eecb	0.89036244
25	0x3f6d3cef	0.926711
26	0xbf2f01cb	-0.6836211
27	0xbea43351	-0.320704
28	0xbf8b14f5	-1.086577
29	0xc00b3f77	-2.1757486
30	0xbf169c97	-0.5883269
31	0x3d83fecc	0.06445083
32	0x3e8deef3	0.27721366
33	0x3e9c94aa	0.30582172
34	0x3f334174	0.7002175
35	0xbf1372fe	-0.5759734
36	0xc00918a7	-2.1421297
37	0xbffd7056	-1.9799907
38	0xc014361f	-2.3158033
39	0xbd466f31	-0.048445884
40	0xbf5ba763	-0.85802287
41	0xbf55fe49	-0.83591133
42	0x3d05cd1f	0.03266632
43	0xbedbd8d3	-0.4293886
44	0x3e4bfa69	0.19919743
45	0xbf3ce2a8	-0.7378335
46	0xbe509dff	-0.2037277
47	0x3e21cd6e	0.15801021
48	0x3f39f405	0.7263797
49	0x4024f0ff	2.5772092
50	0xbf3714ef	-0.7151632
51	0x3d1488ad	0.036263157
52	0x3e0f5a27	0.13999234
53	0x3f40cfe4	0.75317216
54	0x3f4d1ef2	0.80125344
55	0x3f423992	0.75869095
56	0xbee3886a	-0.44440013
57	0xbec407ac	-0.38287103
58	0xbfc7da7e	-1.5613554
59	0xc02b000a	-2.6718774
60	0x3f649cf1	0.89301974
61	0xbede2ef9	-0.43395212
62	0xbea6686d	-0.32501546
63	0xbfc3bc2a	-1.5291798
64	0xc0075e7e	-2.1151423
65	0x3efabcc4	0.48972142
66	0x3e9a1ca8	0.30099988
67	0xbc0b900e	-0.008518232
68	0xbf5ef48a	-0.87091887
69	0x3d090e03	0.03346063
70	0x3d9b18f4	0.07573119
71	0x3e8f9b5b	0.28048214
72	0xbe1ba0ae	-0.15198013
73	0xbf75180b	-0.9573981
74	0xbd8f3ad8	-0.069936454
75	0xbea32606	-0.31864947
76	0x3e297139	0.16547097
77	0xbe8cc434	-0.2749344
78	0x3ef8caee	0.48592323
79	0x3ff04d05	1.8773504
80	0xbf8162d9	-1.0108291
81	0xbede0e21	-0.43370155
82	0xbf09e04f	-0.5385789
83	0x3c245687	0.010030395
84	0xbea679b8	-0.3251474
85	0x3f536094	0.8256924
86	0xbecf5e00	-0.40501404
87	0xbf1ac8a8	-0.6046243
88	0xbf9bf49a	-1.2184021
89	0xc004627f	-2.0685117
90	0xbeaf6976	-0.34260148
91	0xbf8aeca8	-1.0853472
92	0xbf24fa4e	-0.64444435
93	0x3d98eb1b	0.07466718
94	0xbdccedda	-0.10006304
95	0x3f1fe356	0.6245626
96	0xbe8c5f56	-0.27416486
97	0xbe513f89	-0.20434393
98	0xbfb3b9f3	-1.4041122
99	0xbffa4a9b	-1.9554018

light.trunk.0.bias f4 [20]
0	0xbdbdd7ad	-0.092696525
1	0xbeba76d8	-0.36418796
2	0xbf8565f3	-1.0421737
3	0xbd04d61f	-0.032430764
4	0x39ad0700	0.00033002347
5	0xbec5a060	-0.3859892
6	0xbdbf150b	-0.093301855
7	0xc019da3c	-2.403945
8	0xbee096d8	-0.43865085
9	0x3e5cc5cc	0.21559829
10	0xbc1d3f73	-0.009597647
11	0xbebb1702	-0.3654099
12	0xbd78d3b2	-0.060748763
13	0xbdff5f61	-0.12469364
14	0xbe2952f3	-0.16535549
15	0xbe458118	-0.19287527
16	0xbebc1110	-0.36731768
17	0x3c908df6	0.017645817
18	0xbfbb68d0	-1.4641361
19	0x3d2bd54e	0.04195147

light.trunk.2.weight f4 [20, 20]
0	0xbeeeb733	-0.46624145
1	0xbe546cc2	-0.20744613
2	0xbeec6a25	-0.46174732
3	0xbf02dbcd	-0.5111664
4	0xbd576a80	-0.0525918
5	0x3e0ea21c	0.13929027
6	0x3e66898c	0.22513407
7	0x3d1a3ea7	0.037657406
8	0xbee202b8	-0.441427
9	0xbe0c1c96	-0.1368278
10	0xbe3dbe4d	-0.18529625
11	0xbec1ba3d	-0.378374
12	0xbeb224ef	-0.34793803
13	0xbef3b803	-0.47601327
14	0xbdcf7f54	-0.10131708
15	0x3e96ae42	0.29429823
16	0xbdcd56a4	-0.10026291
17	0x3c0024d0	0.007821277
18	0xbecf0042	-0.40429884
19	0xbe369aac	-0.1783244
20	0xbdcab61e	-0.09898017
21	0xbd9a4b81	-0.075339325
22	0xbf16cd5b	-0.589071
23	0xbe903f02	-0.2817307
24	0xbef5d432	-0.48013455
25	0x3e045148	0.12921631
26	0xbecb31b6	-0.39686364
27	0xbf0e08c9	-0.55482155
28	0xbe66a520	-0.22523928
29	0xbf7991b0	-0.97487926
30	0xbeadb439	-0.3392656
31	0xbddfae56	-0.10921924
32	0xbe897084	-0.26843655
33	0xbe905e55	-0.2819697
34	0xbed8ef63	-0.42370138
35	0xbf28f57b	-0.65999573
36	0xbda9aad2	-0.082845345
37	0xbefe2f61	-0.49645522
38	0x3e33f7db	0.17575018
39	0xbee785c4	-0.45219243
40	0xbedf54e6	-0.4361946
41	0xbc831deb	-0.016005477
42	0xbe854d56	-0.26035565
43	0xbdb0a10f	-0.086244695
44	0xbf0a21c1	-0.53957754
45	0xbe6dfaf7	-0.23240267
46	0x3b741b19	0.0037247597
47	0xbf0abc27	-0.5419335
48	0xbd9098f9	-0.07060427
49	0xbf4278e5	-0.7596572
50	0xbf0c6ced	-0.5485371
51	0x3d873656	0.06602161
52	0xbe802e75	-0.25035444
53	0xbf07f3b5	-0.5310624
54	0xbd9a86e7	-0.07545262
55	0xbd6af4eb	-0.05736248
56	0xbe2b837b	-0.16749375
57	0xbf29a3e4	-0.662657
58	0x3e3c07d6	0.18362364
59	0xbe377d7d	-0.17918964
60	0xbcfa162a	-0.030528147
61	0xbeee66be	-0.4656276
62	0x3c12866a	0.00894318
63	0xbe03420b	-0.12818162
64	0xbc9c48b2	-0.019077633
65	0x3d45a4f6	0.048253022
66	0x3dff3186	0.12460618
67	0x3e3e45c9	0.18581308
68	0xbe4309ee	-0.19046757
69	0xbc33e268	-0.010979272
70	0x3e89224a	0.26783973
71	0xbed03084	-0.40662014
72	0x3dd9f688	0.10642725
73	0x3e464fb9	0.1936635
74	0xbed4710a	-0.41492492
75	0xbe95fbfb	-0.29293808
76	0xbb519822	-0.0031981547
77	0xbef1c6a5	-0.47221866
78	0x3c77e949	0.015131303
79	0x3b56e3c0	0.0032789558
80	0x3e38cab2	0.18046072
81	0x3d9173f3	0.07102194
82	0x3e88a4b9	0.26688173
83	0x3e9d821c	0.30763328
84	0xbe9b3bb7	-0.30318996
85	0x3ec06f8b	0.375851
86	0x3e7cd9ca	0.24692455
87	0xbd1198bb	-0.035546046
88	0x3ebc6342	0.36794478
89	0xc00cc418	-2.1994686
90	0x3e468dc9	0.19390024
91	0xbeab64fa	-0.33475477
92	0x3ea2c276	0.31788987
93	0x3ee444f8	0.4458387
94	0x3f3adc31	0.72992235
95	0x3d57fffc	0.05273436
96	0x3ecdc410	0.40188646
97	0x3dba7c67	0.09105759
98	0x3ecdac4f	0.40170524
99	0x3d470bb0	0.04859513
100	0x3e3192a1	0.1734109
101	0x3eb07e0d	0.3447117
102	0x3dc3e2e2	0.09564759
103	0x3f30fec4	0.6913874
104	0xbf548c13	-0.83026236
105	0x3f7054af	0.93879217
106	0xbeeef374	-0.46670115
107	0x3e5c8cbc	0.21538061
108	0xbecbd5f5	-0.39811674
109	0xbf6033f3	-0.8757927
110	0xbf50c65a	-0.8155266
111	0x3f729b38	0.94768095
112	0x3f718958	0.94350195
113	0x3dd52bef	0.1040877
114	0x3daa6ba7	0.08321314
115	0xbf224fb6	-0.6340288
116	0xbe15f408	-0.14643872
117	0x3f59fbba	0.8514973
118	0xbedb715f	-0.42859933
119	0x3fa13d14	1.2596765
120	0xbe7079e0	-0.23483992
121	0x3eb6905c	0.35657012
122	0xbf032005	-0.5122073
123	0x3d6b0fae	0.057388
124	0xbf5ee7d3	-0.87072486
125	0x3e13eb5e	0.14445254
126	0xbf40cbd2	-0.75311005
127	0xbd1773ce	-0.036975674
128	0xbdaeba0b	-0.08531579
129	0xbf24da7c	-0.6439588
130	0xbf0278fb	-0.5096585
131	0xbde950ec	-0.11392388
132	0x3e9f2d79	0.3108938
133	0xbf1afd54	-0.605428
134	0xbe816dab	-0.25278983
135	0xbed8e6c2	-0.42363554
136	0xbddf5458	-0.10904759
137	0x3f5be915	0.8590253
138	0xbf01179c	-0.5042665
139	0x3f20136e	0.6252965
140	0xbdee2620	-0.116283655
141	0xbecc7c3e	-0.3993854
142	0x3e5f8f7e	0.21832082
143	0x3e44e242	0.19226936
144	0x3e1cc3f6	0.15309128
145	0x3e5c4d7d	0.21513934
146	0xbdcc795d	-0.09984086
147	0xbea91d54	-0.33030188
148	0xbdf0cb00	-0.11757469
149	0x3e8d4f11	0.27599385
150	0xbe0e4114	-0.13892013
151	0xbeb1ef2a	-0.3475278
152	0xbebf2bde	-0.37338156
153	0xbe55f8b6	-0.20895657
154	0xbda966f3	-0.08271589
155	0xbeebb23a	-0.46034414
156	0x3e14c8d9	0.14529742
157	0xbe7de76a	-0.24795309
158	0x3dea0d7f	0.114283554
159	0xbdf67e71	-0.120358355
160	0x3f0fbcdd	0.5614756
161	0x3eb8ea19	0.36116102
162	0xbd3c5897	-0.045982923
163	0x3ea3c75a	0.3198803
164	0xbf71aa97	-0.94400924
165	0xbbf634c0	-0.0075136125
166	0xbf417912	-0.75575364
167	0x3c99600f	0.018722562
168	0x396dbc7e	0.000226723
169	0xbfdd5cb9	-1.7293922
170	0xbe952db8	-0.29136443
171	0xbe04967a	-0.12948027
172	0x3f23679e	0.6382998
173	0x3c353a3f	0.01106125
174	0xbddb31a3	-0.10702827
175	0xbfbaa052	-1.4580176
176	0x3d07da7b	0.033167344
177	0x3ea631d5	0.32459894
178	0xbea66558	-0.32499194
179	0x3dfc962f	0.12333333
180	0x3dbacc73	0.09121027
181	0xbe3dd971	-0.18539979
182	0xbe3cdec8	-0.1844436
183	0xbeebc2ea	-0.46047145
184	0xbcbd50ab	-0.023109755
185	0xbd48051d	-0.048833
186	0xbe25eeff	-0.16204451
187	0xbde8d496	-0.113686725
188	0x3dbc513a	0.0919518
189	0xbe6e6a55	-0.2328275
190	0x3b65dac7	0.0035073028
191	0x3db6ab00	0.089193344
192	0x3e899484	0.2687112
193	0x3e8e93c9	0.27847126
194	0xbe034942	-0.12820914
195	0x3eb8294a	0.35969
196	0xbe9f492f	-0.31110522
197	0xbeaa1f03	-0.33226785
198	0xbe233458	-0.15937936
199	0xbee005ed	-0.4375452
200	0x3e02b597	0.12764584
201	0x3e92dad5	0.2868258
202	0xbedde47e	-0.43338388
203	0xbe25c957	-0.16190086
204	0xbed9b61a	-0.42521745
205	0x3d56aa65	0.052408595
206	0xbe9b03df	-0.3027639
207	0xbf2cb357	-0.6746115
208	0xbe1e4489	-0.15455832
209	0xbf425a37	-0.75918907
210	0xbf1b7f55	-0.6074117
211	0x3e1a9954	0.15097553
212	0x3f3f4de1	0.7472821
213	0xbf0965e8	-0.5367112
214	0xbe868694	-0.2627455
215	0xbf1ac92b	-0.6046321
216	0xbd103096	-0.035202585
217	0x3f0eabdd	0.5573099
218	0xbf530508	-0.8242955
219	0x3f3c41bf	0.7353782
220	0x3f163ff6	0.58691347
221	0xbd00b3fc	-0.031421646
222	0x3e5e15d0	0.21688008
223	0x3dbed7dc	0.09318516
224	0x3def8d66	0.116968915
225	0xbe415362	-0.18879464
226	0x3e76a9c9	0.24088205
227	0x3f0cb4cf	0.5496339
228	0x3e8a4bf6	0.2701108
229	0xbec3b301	-0.38222507
230	0xbe8ac9af	-0.27106997
231	0x3f051be1	0.51995665
232	0x3ec7aa16	0.38996953
233	0x3e857f49	0.26073673
234	0xbcbb90d8	-0.022896215
235	0xbe7cc957	-0.2468618
236	0x3e4042a5	0.18775423
237	0x3f78c53a	0.97175944
238	0xbe973727	-0.29534265
239	0x3e98d281	0.29848102
240	0xbde8fc66	-0.11376266
241	0x3e337084	0.1752339
242	0xbd579b92	-0.052638598
243	0xbe0a3661	-0.13497306
244	0xbe3e6483	-0.1859303
245	0x3d5eb02f	0.05436724
246	0x3ea60d6d	0.32432118
247	0xbcbaf670	-0.022822589
248	0x3e4950c7	0.1965972
249	0x3e61c980	0.22049522
250	0x3e469a39	0.19394769
251	0x3cb31858	0.021862194
252	0x3e7627b4	0.24038583
253	0xbded26c8	-0.115796626
254	0xbe14441b	-0.14479105
255	0x3ea9ff66	0.33202666

light.trunk.2.bias f4 [20]
0	0xbe09fb9f	-0.13474892
1	0xbe3f1b89	-0.18662848
2	0xbe3c15d9	-0.18367709
3	0xbdf6f41a	-0.120582774
4	0x3ee92665	0.45537105
5	0xbea67e27	-0.32518122
6	0xbed0658f	-0.40702483
7	0xbd929e5b	-0.0715911
8	0xbe2569a4	-0.1615358
9	0xbd930371	-0.07178391
10	0xbed4fff1	-0.41601518
11	0x3d24ce17	0.040235605
12	0x3b862382	0.0040935883
13	0x3e55c287	0.20874988
14	0xbdbab05f	-0.09115671
15	0xc00da55a	-2.2132173
16	0xbeb9dbaf	-0.36300418
17	0xbe60d8d4	-0.21957713
18	0xbe4b9844	-0.19882303
19	0xbe94f4a4	-0.29092896

light.intensity_head.0.weight f4 [1, 20]
0	0x3ec720ce	0.38892215
1	0x3ebf0a76	0.3731267
2	0x3eb8de28	0.36106992
3	0x3e2833c3	0.16425996
4	0x3eb6e985	0.35725036
5	0xbf1978ad	-0.5994976
6	0xbf18a6d4	-0.5962956
7	0x3ec7d90c	0.3903278
8	0x3e9822f6	0.29714173
9	0x3ef9d0ce	0.48792118
10	0xbee12c92	-0.43979317
11	0xbe81f279	-0.25380304
12	0x3f03d24f	0.5149278
13	0x3ea1a9dc	0.31574905
14	0x3e86f8eb	0.26361784
15	0xbf1b3000	-0.6062012
16	0x3dd468a3	0.1037152
17	0x3e83f541	0.2577305
18	0x3ec218cf	0.37909552
19	0x3d3faf1c	0.046797857

light.chroma_head.0.weight f4 [3, 20]
0	0xbc6440e0	-0.013931483
1	0xbdc60f53	-0.096708916
2	0x3d2b266d	0.041784693
3	0x3c8cdc91	0.017195018
4	0xbe4212c9	-0.18952478
5	0x3e766674	0.2406252
6	0xbf280413	-0.65631217
7	0x3e026d06	0.12736902
8	0xbef1bd2e	-0.47214645
9	0xbdd93073	-0.10604944
10	0xbe461eb1	-0.19347645
11	0x3ee866c1	0.45390895
12	0x3dd5ac85	0.10433296
13	0xbe0ae3db	-0.13563482
14	0x3dc1da2d	0.09465442
15	0xc02f284c	-2.7368345
16	0xbdc25391	-0.09488595
17	0x3d707590	0.058705866
18	0x3cb92ad9	0.02260344
19	0xbc133d13	-0.008986729
20	0xbd67301c	-0.056442365
21	0xbda040e8	-0.0782488
22	0xbc959c90	-0.018263131
23	0xbc507c71	-0.012724982
24	0xbdcdfa41	-0.10057498
25	0x3e404e92	0.18779972
26	0xbd48fcdd	-0.049069274
27	0x3d103c46	0.03521373
28	0xbe056b12	-0.13029125
29	0xbd15412d	-0.03643911
30	0x3d4718e0	0.048607707
31	0x3e9159fe	0.2838897
32	0xbb87276d	-0.004124573
33	0xbdc78343	-0.09741833
34	0x3c886392	0.016649041
35	0xbfb41964	-1.4070249
36	0xbd0e8db5	-0.03480311
37	0xbd16e60c	-0.036840484
38	0xbce7ef10	-0.028312236
39	0xbc7dd26b	-0.015492062
40	0xbd27df68	-0.04098454
41	0x3d2ded68	0.042462736
42	0xbdea9db9	-0.114558645
43	0xbe009e19	-0.1256031
44	0x3e174380	0.14771843
45	0xbc94e874	-0.018177249
46	0x3f94e247	1.1631554
47	0xbeaf12a6	-0.34193915
48	0x3ea7a843	0.3274556
49	0x3ce935a5	0.028467963
50	0x3f220d1a	0.6330124
51	0xbef7f4cb	-0.4842895
52	0xbe424f33	-0.18975525
53	0x3ddbb90a	0.10728653
54	0xbeab71ae	-0.33485168
55	0x40680a12	3.6256146
56	0x3cbfeb80	0.023427725
57	0xbe0e23a3	-0.13880782
58	0xbdd67286	-0.10471062
59	0xbdbe54eb	-0.092935406

light.chroma_head.0.bias f4 [3]
0	0x3de1040d	0.10987101
1	0x3cac1465	0.021005819
2	0xbe495e76	-0.1966494

so3 f8 [1, 1, 3]
0	0xbf747ae147ae147a	-0.004999999999999999
1	0xbfca1cac083126e8	-0.20399999999999996
2	0x3fd0b4395810624e	0.261
